Layer (type)                 Output Shape              Param #   
=================================================================
conv2d (Conv2D)              (None, 28, 28, 30)        840       
_________________________________________________________________
max_pooling2d (MaxPooling2D) (None, 14, 14, 30)        0         
_________________________________________________________________
conv2d_1 (Conv2D)            (None, 12, 12, 60)        16260     
_________________________________________________________________
max_pooling2d_1 (MaxPooling2 (None, 6, 6, 60)          0         
_________________________________________________________________
conv2d_2 (Conv2D)            (None, 4, 4, 60)          32460     
_________________________________________________________________
flatten (Flatten)            (None, 960)               0         
_________________________________________________________________
dense (Dense)                (None, 128)               123008    
_________________________________________________________________
dropout (Dropout)            (None, 128)               0         
_________________________________________________________________
dense_1 (Dense)              (None, 43)                5547      
=================================================================
Total params: 178,115
Trainable params: 178,115
Non-trainable params: 0
_________________________________________________________________
None
2021-09-11 20:35:37.236596: I tensorflow/compiler/mlir/mlir_graph_optimization_pass.cc:185] None of the MLIR Optimization Passes are enabled (registered 2)
Epoch 1/10
500/500 [==============================] - 13s 24ms/step - loss: 2.3325 - accuracy: 0.4815
…
500/500 [==============================] - 17s 33ms/step - loss: 0.1581 - accuracy: 0.9579
Epoch 10/10
500/500 [==============================] - 15s 30ms/step - loss: 0.1294 - accuracy: 0.9644
333/333 - 3s - loss: 0.1025 - accuracy: 0.9784


Epoch 10/10
500/500 [==============================] - 12s 23ms/step - loss: 0.2227 - accuracy: 0.9317
333/333 - 2s - loss: 0.0991 - accuracy: 0.9763








Model: "sequential"
_________________________________________________________________
Layer (type)                 Output Shape              Param #   
=================================================================
conv2d (Conv2D)              (None, 28, 28, 30)        840       
_________________________________________________________________
max_pooling2d (MaxPooling2D) (None, 14, 14, 30)        0         
_________________________________________________________________
conv2d_1 (Conv2D)            (None, 12, 12, 60)        16260     
_________________________________________________________________
max_pooling2d_1 (MaxPooling2 (None, 6, 6, 60)          0         
_________________________________________________________________
flatten (Flatten)            (None, 2160)              0         
_________________________________________________________________
dense (Dense)                (None, 128)               276608    
_________________________________________________________________
dropout (Dropout)            (None, 128)               0         
_________________________________________________________________
dense_1 (Dense)              (None, 43)                5547      
=================================================================
Total params: 299,255
Trainable params: 299,255
Non-trainable params: 0
_________________________________________________________________
None
2021-09-12 20:33:52.860915: I tensorflow/compiler/mlir/mlir_graph_optimization_pass.cc:185] None of the MLIR Optimization Passes are enabled (registered 2)
Epoch 1/10
500/500 [==============================] - 10s 20ms/step - loss: 2.9612 - accuracy: 0.3765 
…
